I0921 21:41:09.584179  8871 caffe.cpp:246] Use CPU.
I0921 21:41:09.725095  8871 net.cpp:313] The NetState phase (1) differed from the phase (0) specified by a rule in layer mnist
I0921 21:41:09.725234  8871 net.cpp:49] Initializing net from parameters: 
name: "LeNet"
state {
  phase: TEST
}
layer {
  name: "mnist"
  type: "Data"
  top: "data"
  top: "label"
  include {
    phase: TEST
  }
  transform_param {
    scale: 0.00390625
  }
  data_param {
    source: "examples/mnist/mnist_test_lmdb"
    batch_size: 100
    backend: LMDB
  }
}
layer {
  name: "conv1"
  type: "Convolution"
  bottom: "data"
  top: "conv1"
  param {
    lr_mult: 1
  }
  param {
    lr_mult: 2
  }
  convolution_param {
    num_output: 20
    kernel_size: 5
    stride: 1
    weight_filler {
      type: "xavier"
    }
    bias_filler {
      type: "constant"
    }
  }
}
layer {
  name: "pool1"
  type: "Pooling"
  bottom: "conv1"
  top: "pool1"
  pooling_param {
    pool: MAX
    kernel_size: 2
    stride: 2
  }
}
layer {
  name: "conv2"
  type: "Convolution"
  bottom: "pool1"
  top: "conv2"
  param {
    lr_mult: 1
  }
  param {
    lr_mult: 2
  }
  convolution_param {
    num_output: 50
    kernel_size: 5
    stride: 1
    weight_filler {
      type: "xavier"
    }
    bias_filler {
      type: "constant"
    }
  }
}
layer {
  name: "pool2"
  type: "Pooling"
  bottom: "conv2"
  top: "pool2"
  pooling_param {
    pool: MAX
    kernel_size: 2
    stride: 2
  }
}
layer {
  name: "ip1"
  type: "InnerProduct"
  bottom: "pool2"
  top: "ip1"
  param {
    lr_mult: 1
  }
  param {
    lr_mult: 2
  }
  inner_product_param {
    num_output: 500
    weight_filler {
      type: "xavier"
    }
    bias_filler {
      type: "constant"
    }
  }
}
layer {
  name: "relu1"
  type: "ReLU"
  bottom: "ip1"
  top: "ip1"
}
layer {
  name: "ip2"
  type: "InnerProduct"
  bottom: "ip1"
  top: "ip2"
  param {
    lr_mult: 1
  }
  param {
    lr_mult: 2
  }
  inner_product_param {
    num_output: 10
    weight_filler {
      type: "xavier"
    }
    bias_filler {
      type: "constant"
    }
  }
}
layer {
  name: "accuracy"
  type: "Accuracy"
  bottom: "ip2"
  bottom: "label"
  top: "accuracy"
  include {
    phase: TEST
  }
}
layer {
  name: "loss"
  type: "SoftmaxWithLoss"
  bottom: "ip2"
  bottom: "label"
  top: "loss"
}
I0921 21:41:09.725553  8871 layer_factory.hpp:77] Creating layer mnist
I0921 21:41:09.726378  8871 net.cpp:91] Creating Layer mnist
I0921 21:41:09.726398  8871 net.cpp:399] mnist -> data
I0921 21:41:09.726501  8871 net.cpp:399] mnist -> label
I0921 21:41:09.726929  8876 db_lmdb.cpp:35] Opened lmdb examples/mnist/mnist_test_lmdb
I0921 21:41:09.727035  8871 data_layer.cpp:41] output data size: 100,1,28,28
I0921 21:41:09.727301  8871 base_data_layer.cpp:69] Initializing prefetch
I0921 21:41:09.727337  8871 base_data_layer.cpp:72] Prefetch initialized.
I0921 21:41:09.727346  8871 net.cpp:141] Setting up mnist
I0921 21:41:09.727377  8871 net.cpp:148] Top shape: 100 1 28 28 (78400)
I0921 21:41:09.727387  8871 net.cpp:148] Top shape: 100 (100)
I0921 21:41:09.727391  8871 net.cpp:156] Memory required for data: 314000
I0921 21:41:09.727404  8871 layer_factory.hpp:77] Creating layer label_mnist_1_split
I0921 21:41:09.727442  8871 net.cpp:91] Creating Layer label_mnist_1_split
I0921 21:41:09.727455  8871 net.cpp:425] label_mnist_1_split <- label
I0921 21:41:09.727504  8871 net.cpp:399] label_mnist_1_split -> label_mnist_1_split_0
I0921 21:41:09.727545  8871 net.cpp:399] label_mnist_1_split -> label_mnist_1_split_1
I0921 21:41:09.727587  8871 net.cpp:141] Setting up label_mnist_1_split
I0921 21:41:09.727599  8871 net.cpp:148] Top shape: 100 (100)
I0921 21:41:09.727610  8871 net.cpp:148] Top shape: 100 (100)
I0921 21:41:09.727625  8871 net.cpp:156] Memory required for data: 314800
I0921 21:41:09.727632  8871 layer_factory.hpp:77] Creating layer conv1
I0921 21:41:09.727665  8871 net.cpp:91] Creating Layer conv1
I0921 21:41:09.727674  8871 net.cpp:425] conv1 <- data
I0921 21:41:09.727697  8871 net.cpp:399] conv1 -> conv1
I0921 21:41:09.728904  8877 data_layer.cpp:102] Prefetch batch: 0 ms.
I0921 21:41:09.728919  8877 data_layer.cpp:103]      Read time: 0.097 ms.
I0921 21:41:09.728934  8877 data_layer.cpp:104] Transform time: 0.592 ms.
I0921 21:41:09.729853  8877 data_layer.cpp:102] Prefetch batch: 0 ms.
I0921 21:41:09.729859  8877 data_layer.cpp:103]      Read time: 0.085 ms.
I0921 21:41:09.729862  8877 data_layer.cpp:104] Transform time: 0.582 ms.
I0921 21:41:09.730765  8877 data_layer.cpp:102] Prefetch batch: 0 ms.
I0921 21:41:09.730770  8877 data_layer.cpp:103]      Read time: 0.086 ms.
I0921 21:41:09.730783  8877 data_layer.cpp:104] Transform time: 0.57 ms.
I0921 21:41:09.858350  8871 cudnn_conv_layer.cpp:194] Reallocating workspace storage: 20664
I0921 21:41:09.858383  8871 net.cpp:141] Setting up conv1
I0921 21:41:09.858398  8871 net.cpp:148] Top shape: 100 20 24 24 (1152000)
I0921 21:41:09.858412  8871 net.cpp:156] Memory required for data: 4922800
I0921 21:41:09.858510  8871 layer_factory.hpp:77] Creating layer pool1
I0921 21:41:09.858554  8871 net.cpp:91] Creating Layer pool1
I0921 21:41:09.858564  8871 net.cpp:425] pool1 <- conv1
I0921 21:41:09.858583  8871 net.cpp:399] pool1 -> pool1
I0921 21:41:09.858639  8871 net.cpp:141] Setting up pool1
I0921 21:41:09.858656  8871 net.cpp:148] Top shape: 100 20 12 12 (288000)
I0921 21:41:09.858659  8871 net.cpp:156] Memory required for data: 6074800
I0921 21:41:09.858664  8871 layer_factory.hpp:77] Creating layer conv2
I0921 21:41:09.858721  8871 net.cpp:91] Creating Layer conv2
I0921 21:41:09.858727  8871 net.cpp:425] conv2 <- pool1
I0921 21:41:09.858741  8871 net.cpp:399] conv2 -> conv2
I0921 21:41:09.860155  8871 cudnn_conv_layer.cpp:194] Reallocating workspace storage: 10272
I0921 21:41:09.860266  8871 net.cpp:141] Setting up conv2
I0921 21:41:09.860276  8871 net.cpp:148] Top shape: 100 50 8 8 (320000)
I0921 21:41:09.860280  8871 net.cpp:156] Memory required for data: 7354800
I0921 21:41:09.860304  8871 layer_factory.hpp:77] Creating layer pool2
I0921 21:41:09.860317  8871 net.cpp:91] Creating Layer pool2
I0921 21:41:09.860323  8871 net.cpp:425] pool2 <- conv2
I0921 21:41:09.860334  8871 net.cpp:399] pool2 -> pool2
I0921 21:41:09.860354  8871 net.cpp:141] Setting up pool2
I0921 21:41:09.860363  8871 net.cpp:148] Top shape: 100 50 4 4 (80000)
I0921 21:41:09.860365  8871 net.cpp:156] Memory required for data: 7674800
I0921 21:41:09.860369  8871 layer_factory.hpp:77] Creating layer ip1
I0921 21:41:09.860385  8871 net.cpp:91] Creating Layer ip1
I0921 21:41:09.860400  8871 net.cpp:425] ip1 <- pool2
I0921 21:41:09.860424  8871 net.cpp:399] ip1 -> ip1
I0921 21:41:09.876507  8871 net.cpp:141] Setting up ip1
I0921 21:41:09.876536  8871 net.cpp:148] Top shape: 100 500 (50000)
I0921 21:41:09.876540  8871 net.cpp:156] Memory required for data: 7874800
I0921 21:41:09.876572  8871 layer_factory.hpp:77] Creating layer relu1
I0921 21:41:09.876595  8871 net.cpp:91] Creating Layer relu1
I0921 21:41:09.876611  8871 net.cpp:425] relu1 <- ip1
I0921 21:41:09.876631  8871 net.cpp:386] relu1 -> ip1 (in-place)
I0921 21:41:09.876893  8871 net.cpp:141] Setting up relu1
I0921 21:41:09.876902  8871 net.cpp:148] Top shape: 100 500 (50000)
I0921 21:41:09.876915  8871 net.cpp:156] Memory required for data: 8074800
I0921 21:41:09.876920  8871 layer_factory.hpp:77] Creating layer ip2
I0921 21:41:09.876938  8871 net.cpp:91] Creating Layer ip2
I0921 21:41:09.876945  8871 net.cpp:425] ip2 <- ip1
I0921 21:41:09.876960  8871 net.cpp:399] ip2 -> ip2
I0921 21:41:09.877193  8871 net.cpp:141] Setting up ip2
I0921 21:41:09.877213  8871 net.cpp:148] Top shape: 100 10 (1000)
I0921 21:41:09.877215  8871 net.cpp:156] Memory required for data: 8078800
I0921 21:41:09.877223  8871 layer_factory.hpp:77] Creating layer ip2_ip2_0_split
I0921 21:41:09.877233  8871 net.cpp:91] Creating Layer ip2_ip2_0_split
I0921 21:41:09.877238  8871 net.cpp:425] ip2_ip2_0_split <- ip2
I0921 21:41:09.877249  8871 net.cpp:399] ip2_ip2_0_split -> ip2_ip2_0_split_0
I0921 21:41:09.877270  8871 net.cpp:399] ip2_ip2_0_split -> ip2_ip2_0_split_1
I0921 21:41:09.877292  8871 net.cpp:141] Setting up ip2_ip2_0_split
I0921 21:41:09.877300  8871 net.cpp:148] Top shape: 100 10 (1000)
I0921 21:41:09.877316  8871 net.cpp:148] Top shape: 100 10 (1000)
I0921 21:41:09.877320  8871 net.cpp:156] Memory required for data: 8086800
I0921 21:41:09.877323  8871 layer_factory.hpp:77] Creating layer accuracy
I0921 21:41:09.877336  8871 net.cpp:91] Creating Layer accuracy
I0921 21:41:09.877342  8871 net.cpp:425] accuracy <- ip2_ip2_0_split_0
I0921 21:41:09.877351  8871 net.cpp:425] accuracy <- label_mnist_1_split_0
I0921 21:41:09.877362  8871 net.cpp:399] accuracy -> accuracy
…
