…
I0124 10:23:15.877089   536 net.cpp:313] The NetState phase (0) differed from the phase (1) specified by a rule in layer mnist
I0124 10:23:15.877106   536 net.cpp:313] The NetState phase (0) differed from the phase (1) specified by a rule in layer accuracy
I0124 10:23:15.877177   536 net.cpp:49] Initializing net from parameters: 
name: "LeNet"
state {
  phase: TRAIN
}
layer {
  name: "mnist"
  type: "Data"
  top: "data"
  top: "label"
  include {
    phase: TRAIN
  }
  transform_param {
    scale: 0.00390625
  }
  data_param {
    source: "examples/pedestrain_1.4W/pedestrain_1.4W_train_lmdb"
    batch_size: 64
    backend: LMDB
  }
}
layer {
  name: "conv1"
  type: "Convolution"
  bottom: "data"
  top: "conv1"
  param {
    lr_mult: 1
  }
  param {
    lr_mult: 2
  }
  convolution_param {
    num_output: 20
    kernel_size: 5
    stride: 1
    weight_filler {
      type: "xavier"
    }
    bias_filler {
      type: "constant"
    }
  }
}
layer {
  name: "pool1"
  type: "Pooling"
  bottom: "conv1"
  top: "pool1"
  pooling_param {
    pool: MAX
    kernel_size: 2
    stride: 2
  }
}
layer {
  name: "conv2"
  type: "Convolution"
  bottom: "pool1"
  top: "conv2"
  param {
    lr_mult: 1
  }
  param {
    lr_mult: 2
  }
  convolution_param {
    num_output: 50
    kernel_size: 5
    stride: 1
    weight_filler {
      type: "xavier"
    }
    bias_filler {
      type: "constant"
    }
  }
}
layer {
  name: "pool2"
  type: "Pooling"
  bottom: "conv2"
  top: "pool2"
  pooling_param {
    pool: MAX
    kernel_size: 2
    stride: 2
  }
}
layer {
  name: "ip1"
  type: "InnerProduct"
  bottom: "pool2"
  top: "ip1"
  param {
    lr_mult: 1
  }
  param {
    lr_mult: 2
  }
  inner_product_param {
    num_output: 500
    weight_filler {
      type: "xavier"
    }
    bias_filler {
      type: "constant"
    }
  }
}
layer {
  name: "relu1"
  type: "ReLU"
  bottom: "ip1"
  top: "ip1"
}
layer {
  name: "ip2"
  type: "InnerProduct"
  bottom: "ip1"
  top: "ip2"
  param {
    lr_mult: 1
  }
  param {
    lr_mult: 2
  }
  inner_product_param {
    num_output: 2
    weight_filler {
      type: "xavier"
    }
    bias_filler {
      type: "constant"
    }
  }
}
layer {
  name: "loss"
  type: "SoftmaxWithLoss"
  bottom: "ip2"
  bottom: "label"
  top: "loss"
}
I0124 10:23:15.877434   536 layer_factory.hpp:77] Creating layer mnist
I0124 10:23:15.878424   536 net.cpp:91] Creating Layer mnist
I0124 10:23:15.878453   536 net.cpp:399] mnist -> data
I0124 10:23:15.878556   536 net.cpp:399] mnist -> label
I0124 10:23:15.878973   544 db_lmdb.cpp:35] Opened lmdb examples/pedestrain_1.4W/pedestrain_1.4W_train_lmdb
I0124 10:23:15.893760   536 data_layer.cpp:41] output data size: 64,3,80,80
I0124 10:23:15.899492   536 base_data_layer.cpp:69] Initializing prefetch
I0124 10:23:15.900012   536 base_data_layer.cpp:72] Prefetch initialized.
I0124 10:23:15.900034   536 net.cpp:141] Setting up mnist
I0124 10:23:15.900058   536 net.cpp:148] Top shape: 64 3 80 80 (1228800)
I0124 10:23:15.900074   536 net.cpp:148] Top shape: 64 (64)
I0124 10:23:15.900077   536 net.cpp:156] Memory required for data: 4915456
I0124 10:23:15.900099   536 layer_factory.hpp:77] Creating layer conv1
I0124 10:23:15.900184   536 net.cpp:91] Creating Layer conv1
I0124 10:23:15.900199   536 net.cpp:425] conv1 <- data
I0124 10:23:15.900254   536 net.cpp:399] conv1 -> conv1
I0124 10:23:15.907971   545 data_layer.cpp:102] Prefetch batch: 7 ms.
I0124 10:23:15.907995   545 data_layer.cpp:103]      Read time: 0.066 ms.
I0124 10:23:15.908026   545 data_layer.cpp:104] Transform time: 6.146 ms.
I0124 10:23:15.918222   545 data_layer.cpp:102] Prefetch batch: 6 ms.
I0124 10:23:15.918256   545 data_layer.cpp:103]      Read time: 0.061 ms.
I0124 10:23:15.918261   545 data_layer.cpp:104] Transform time: 5.92 ms.
I0124 10:23:15.928259   545 data_layer.cpp:102] Prefetch batch: 7 ms.
I0124 10:23:15.928292   545 data_layer.cpp:103]      Read time: 0.066 ms.
I0124 10:23:15.928297   545 data_layer.cpp:104] Transform time: 6.115 ms.
I0124 10:23:16.016705   536 cudnn_conv_layer.cpp:194] Reallocating workspace storage: 121752
I0124 10:23:16.016809   536 net.cpp:141] Setting up conv1
I0124 10:23:16.016827   536 net.cpp:148] Top shape: 64 20 76 76 (7393280)
I0124 10:23:16.016830   536 net.cpp:156] Memory required for data: 34488576
I0124 10:23:16.016887   536 layer_factory.hpp:77] Creating layer pool1
I0124 10:23:16.016923   536 net.cpp:91] Creating Layer pool1
I0124 10:23:16.016932   536 net.cpp:425] pool1 <- conv1
I0124 10:23:16.016950   536 net.cpp:399] pool1 -> pool1
I0124 10:23:16.017004   536 net.cpp:141] Setting up pool1
I0124 10:23:16.017014   536 net.cpp:148] Top shape: 64 20 38 38 (1848320)
I0124 10:23:16.017017   536 net.cpp:156] Memory required for data: 41881856
I0124 10:23:16.017021   536 layer_factory.hpp:77] Creating layer conv2
I0124 10:23:16.017042   536 net.cpp:91] Creating Layer conv2
I0124 10:23:16.017048   536 net.cpp:425] conv2 <- pool1
I0124 10:23:16.017061   536 net.cpp:399] conv2 -> conv2
I0124 10:23:16.018889   536 cudnn_conv_layer.cpp:194] Reallocating workspace storage: 32544
I0124 10:23:16.018905   536 net.cpp:141] Setting up conv2
I0124 10:23:16.018913   536 net.cpp:148] Top shape: 64 50 34 34 (3699200)
I0124 10:23:16.018914   536 net.cpp:156] Memory required for data: 56678656
I0124 10:23:16.018940   536 layer_factory.hpp:77] Creating layer pool2
I0124 10:23:16.018955   536 net.cpp:91] Creating Layer pool2
I0124 10:23:16.018962   536 net.cpp:425] pool2 <- conv2
I0124 10:23:16.018975   536 net.cpp:399] pool2 -> pool2
I0124 10:23:16.019016   536 net.cpp:141] Setting up pool2
I0124 10:23:16.019023   536 net.cpp:148] Top shape: 64 50 17 17 (924800)
I0124 10:23:16.019026   536 net.cpp:156] Memory required for data: 60377856
I0124 10:23:16.019031   536 layer_factory.hpp:77] Creating layer ip1
I0124 10:23:16.019047   536 net.cpp:91] Creating Layer ip1
I0124 10:23:16.019053   536 net.cpp:425] ip1 <- pool2
I0124 10:23:16.019067   536 net.cpp:399] ip1 -> ip1
I0124 10:23:16.301545   536 net.cpp:141] Setting up ip1
I0124 10:23:16.301578   536 net.cpp:148] Top shape: 64 500 (32000)
I0124 10:23:16.301580   536 net.cpp:156] Memory required for data: 60505856
I0124 10:23:16.301626   536 layer_factory.hpp:77] Creating layer relu1
I0124 10:23:16.301656   536 net.cpp:91] Creating Layer relu1
I0124 10:23:16.301689   536 net.cpp:425] relu1 <- ip1
I0124 10:23:16.301713   536 net.cpp:386] relu1 -> ip1 (in-place)
I0124 10:23:16.301906   536 net.cpp:141] Setting up relu1
I0124 10:23:16.301914   536 net.cpp:148] Top shape: 64 500 (32000)
I0124 10:23:16.301918   536 net.cpp:156] Memory required for data: 60633856
I0124 10:23:16.301921   536 layer_factory.hpp:77] Creating layer ip2
I0124 10:23:16.301946   536 net.cpp:91] Creating Layer ip2
I0124 10:23:16.301952   536 net.cpp:425] ip2 <- ip1
I0124 10:23:16.301966   536 net.cpp:399] ip2 -> ip2
I0124 10:23:16.302139   536 net.cpp:141] Setting up ip2
I0124 10:23:16.302147   536 net.cpp:148] Top shape: 64 2 (128)
I0124 10:23:16.302150   536 net.cpp:156] Memory required for data: 60634368
I0124 10:23:16.302158   536 layer_factory.hpp:77] Creating layer loss
I0124 10:23:16.302186   536 net.cpp:91] Creating Layer loss
I0124 10:23:16.302192   536 net.cpp:425] loss <- ip2
I0124 10:23:16.302201   536 net.cpp:425] loss <- label
I0124 10:23:16.302215   536 net.cpp:399] loss -> loss
I0124 10:23:16.302249   536 layer_factory.hpp:77] Creating layer loss
…
I0124 10:23:16.302922   536 solver.cpp:181] Creating test net (#0) specified by net file: examples/pedestrain_1.4W/lenet_train_test_src.prototxt
I0124 10:23:16.302983   536 net.cpp:313] The NetState phase (1) differed from the phase (0) specified by a rule in layer mnist
I0124 10:23:16.303072   536 net.cpp:49] Initializing net from parameters: 
name: "LeNet"
state {
  phase: TEST
}
layer {
  name: "mnist"
  type: "Data"
  top: "data"
  top: "label"
  include {
    phase: TEST
  }
  transform_param {
    scale: 0.00390625
  }
  data_param {
    source: "examples/pedestrain_1.4W/pedestrain_1.4W_test_lmdb"
    batch_size: 100
    backend: LMDB
  }
}
layer {
  name: "conv1"
  type: "Convolution"
  bottom: "data"
  top: "conv1"
  param {
    lr_mult: 1
  }
  param {
    lr_mult: 2
  }
  convolution_param {
    num_output: 20
    kernel_size: 5
    stride: 1
    weight_filler {
      type: "xavier"
    }
    bias_filler {
      type: "constant"
    }
  }
}
layer {
  name: "pool1"
  type: "Pooling"
  bottom: "conv1"
  top: "pool1"
  pooling_param {
    pool: MAX
    kernel_size: 2
    stride: 2
  }
}
layer {
  name: "conv2"
  type: "Convolution"
  bottom: "pool1"
  top: "conv2"
  param {
    lr_mult: 1
  }
  param {
    lr_mult: 2
  }
  convolution_param {
    num_output: 50
    kernel_size: 5
    stride: 1
    weight_filler {
      type: "xavier"
    }
    bias_filler {
      type: "constant"
    }
  }
}
layer {
  name: "pool2"
  type: "Pooling"
  bottom: "conv2"
  top: "pool2"
  pooling_param {
    pool: MAX
    kernel_size: 2
    stride: 2
  }
}
layer {
  name: "ip1"
  type: "InnerProduct"
  bottom: "pool2"
  top: "ip1"
  param {
    lr_mult: 1
  }
  param {
    lr_mult: 2
  }
  inner_product_param {
    num_output: 500
    weight_filler {
      type: "xavier"
    }
    bias_filler {
      type: "constant"
    }
  }
}
layer {
  name: "relu1"
  type: "ReLU"
  bottom: "ip1"
  top: "ip1"
}
layer {
  name: "ip2"
  type: "InnerProduct"
  bottom: "ip1"
  top: "ip2"
  param {
    lr_mult: 1
  }
  param {
    lr_mult: 2
  }
  inner_product_param {
    num_output: 2
    weight_filler {
      type: "xavier"
    }
    bias_filler {
      type: "constant"
    }
  }
}
layer {
  name: "accuracy"
  type: "Accuracy"
  bottom: "ip2"
  bottom: "label"
  top: "accuracy"
  include {
    phase: TEST
  }
}
layer {
  name: "loss"
  type: "SoftmaxWithLoss"
  bottom: "ip2"
  bottom: "label"
  top: "loss"
}
I0124 10:23:16.303244   536 layer_factory.hpp:77] Creating layer mnist
I0124 10:23:16.303930   536 net.cpp:91] Creating Layer mnist
I0124 10:23:16.303966   536 net.cpp:399] mnist -> data
I0124 10:23:16.303992   536 net.cpp:399] mnist -> label
I0124 10:23:16.304469   546 db_lmdb.cpp:35] Opened lmdb examples/pedestrain_1.4W/pedestrain_1.4W_test_lmdb
I0124 10:23:16.304585   536 data_layer.cpp:41] output data size: 100,3,80,80
I0124 10:23:16.315549   536 base_data_layer.cpp:69] Initializing prefetch
I0124 10:23:16.316129   536 base_data_layer.cpp:72] Prefetch initialized.
I0124 10:23:16.316149   536 net.cpp:141] Setting up mnist
I0124 10:23:16.316172   536 net.cpp:148] Top shape: 100 3 80 80 (1920000)
I0124 10:23:16.316177   536 net.cpp:148] Top shape: 100 (100)
I0124 10:23:16.316198   536 net.cpp:156] Memory required for data: 7680400
I0124 10:23:16.316217   536 layer_factory.hpp:77] Creating layer label_mnist_1_split
I0124 10:23:16.316287   536 net.cpp:91] Creating Layer label_mnist_1_split
I0124 10:23:16.316295   536 net.cpp:425] label_mnist_1_split <- label
I0124 10:23:16.316315   536 net.cpp:399] label_mnist_1_split -> label_mnist_1_split_0
I0124 10:23:16.316337   536 net.cpp:399] label_mnist_1_split -> label_mnist_1_split_1
I0124 10:23:16.316397   536 net.cpp:141] Setting up label_mnist_1_split
I0124 10:23:16.316406   536 net.cpp:148] Top shape: 100 (100)
I0124 10:23:16.316421   536 net.cpp:148] Top shape: 100 (100)
I0124 10:23:16.316423   536 net.cpp:156] Memory required for data: 7681200
I0124 10:23:16.316427   536 layer_factory.hpp:77] Creating layer conv1
I0124 10:23:16.316467   536 net.cpp:91] Creating Layer conv1
I0124 10:23:16.316473   536 net.cpp:425] conv1 <- data
I0124 10:23:16.316499   536 net.cpp:399] conv1 -> conv1
I0124 10:23:16.318588   536 cudnn_conv_layer.cpp:194] Reallocating workspace storage: 121752
I0124 10:23:16.318619   536 net.cpp:141] Setting up conv1
I0124 10:23:16.318629   536 net.cpp:148] Top shape: 100 20 76 76 (11552000)
I0124 10:23:16.318632   536 net.cpp:156] Memory required for data: 53889200
I0124 10:23:16.318653   536 layer_factory.hpp:77] Creating layer pool1
I0124 10:23:16.318670   536 net.cpp:91] Creating Layer pool1
I0124 10:23:16.318675   536 net.cpp:425] pool1 <- conv1
I0124 10:23:16.318689   536 net.cpp:399] pool1 -> pool1
I0124 10:23:16.318753   536 net.cpp:141] Setting up pool1
I0124 10:23:16.318760   536 net.cpp:148] Top shape: 100 20 38 38 (2888000)
I0124 10:23:16.318763   536 net.cpp:156] Memory required for data: 65441200
I0124 10:23:16.318768   536 layer_factory.hpp:77] Creating layer conv2
I0124 10:23:16.318789   536 net.cpp:91] Creating Layer conv2
I0124 10:23:16.318794   536 net.cpp:425] conv2 <- pool1
I0124 10:23:16.318809   536 net.cpp:399] conv2 -> conv2
I0124 10:23:16.320487   536 cudnn_conv_layer.cpp:194] Reallocating workspace storage: 32544
I0124 10:23:16.320507   536 net.cpp:141] Setting up conv2
I0124 10:23:16.320513   536 net.cpp:148] Top shape: 100 50 34 34 (5780000)
I0124 10:23:16.320518   536 net.cpp:156] Memory required for data: 88561200
I0124 10:23:16.320533   536 layer_factory.hpp:77] Creating layer pool2
I0124 10:23:16.320545   536 net.cpp:91] Creating Layer pool2
I0124 10:23:16.320554   536 net.cpp:425] pool2 <- conv2
I0124 10:23:16.320566   536 net.cpp:399] pool2 -> pool2
I0124 10:23:16.320607   536 net.cpp:141] Setting up pool2
I0124 10:23:16.320616   536 net.cpp:148] Top shape: 100 50 17 17 (1445000)
I0124 10:23:16.320618   536 net.cpp:156] Memory required for data: 94341200
I0124 10:23:16.320622   536 layer_factory.hpp:77] Creating layer ip1
I0124 10:23:16.320636   536 net.cpp:91] Creating Layer ip1
I0124 10:23:16.320642   536 net.cpp:425] ip1 <- pool2
I0124 10:23:16.320657   536 net.cpp:399] ip1 -> ip1
I0124 10:23:16.328341   547 data_layer.cpp:102] Prefetch batch: 11 ms.
I0124 10:23:16.328368   547 data_layer.cpp:103]      Read time: 0.101 ms.
I0124 10:23:16.328373   547 data_layer.cpp:104] Transform time: 9.802 ms.
I0124 10:23:16.340859   547 data_layer.cpp:102] Prefetch batch: 11 ms.
I0124 10:23:16.340878   547 data_layer.cpp:103]      Read time: 0.103 ms.
I0124 10:23:16.340883   547 data_layer.cpp:104] Transform time: 9.622 ms.
I0124 10:23:16.353106   547 data_layer.cpp:102] Prefetch batch: 10 ms.
I0124 10:23:16.353123   547 data_layer.cpp:103]      Read time: 0.098 ms.
I0124 10:23:16.353127   547 data_layer.cpp:104] Transform time: 9.437 ms.
I0124 10:23:16.603705   536 net.cpp:141] Setting up ip1
I0124 10:23:16.603736   536 net.cpp:148] Top shape: 100 500 (50000)
I0124 10:23:16.603740   536 net.cpp:156] Memory required for data: 94541200
I0124 10:23:16.603785   536 layer_factory.hpp:77] Creating layer relu1
I0124 10:23:16.603819   536 net.cpp:91] Creating Layer relu1
I0124 10:23:16.603838   536 net.cpp:425] relu1 <- ip1
I0124 10:23:16.603863   536 net.cpp:386] relu1 -> ip1 (in-place)
I0124 10:23:16.604221   536 net.cpp:141] Setting up relu1
I0124 10:23:16.604230   536 net.cpp:148] Top shape: 100 500 (50000)
I0124 10:23:16.604233   536 net.cpp:156] Memory required for data: 94741200
I0124 10:23:16.604238   536 layer_factory.hpp:77] Creating layer ip2
I0124 10:23:16.604269   536 net.cpp:91] Creating Layer ip2
I0124 10:23:16.604275   536 net.cpp:425] ip2 <- ip1
I0124 10:23:16.604290   536 net.cpp:399] ip2 -> ip2
I0124 10:23:16.604465   536 net.cpp:141] Setting up ip2
I0124 10:23:16.604475   536 net.cpp:148] Top shape: 100 2 (200)
I0124 10:23:16.604477   536 net.cpp:156] Memory required for data: 94742000
I0124 10:23:16.604485   536 layer_factory.hpp:77] Creating layer ip2_ip2_0_split
I0124 10:23:16.604504   536 net.cpp:91] Creating Layer ip2_ip2_0_split
I0124 10:23:16.604508   536 net.cpp:425] ip2_ip2_0_split <- ip2
I0124 10:23:16.604518   536 net.cpp:399] ip2_ip2_0_split -> ip2_ip2_0_split_0
I0124 10:23:16.604531   536 net.cpp:399] ip2_ip2_0_split -> ip2_ip2_0_split_1
I0124 10:23:16.604573   536 net.cpp:141] Setting up ip2_ip2_0_split
I0124 10:23:16.604580   536 net.cpp:148] Top shape: 100 2 (200)
I0124 10:23:16.604594   536 net.cpp:148] Top shape: 100 2 (200)
I0124 10:23:16.604596   536 net.cpp:156] Memory required for data: 94743600
I0124 10:23:16.604600   536 layer_factory.hpp:77] Creating layer accuracy
I0124 10:23:16.604614   536 net.cpp:91] Creating Layer accuracy
I0124 10:23:16.604620   536 net.cpp:425] accuracy <- ip2_ip2_0_split_0
I0124 10:23:16.604629   536 net.cpp:425] accuracy <- label_mnist_1_split_0
I0124 10:23:16.604638   536 net.cpp:399] accuracy -> accuracy
…
