…
I0921 20:32:50.133930  8616 net.cpp:313] The NetState phase (0) differed from the phase (1) specified by a rule in layer mnist
I0921 20:32:50.133949  8616 net.cpp:313] The NetState phase (0) differed from the phase (1) specified by a rule in layer accuracy
I0921 20:32:50.134022  8616 net.cpp:49] Initializing net from parameters: 
name: "LeNet"
state {
  phase: TRAIN
}
layer {
  name: "mnist"
  type: "Data"
  top: "data"
  top: "label"
  include {
    phase: TRAIN
  }
  transform_param {
    scale: 0.00390625
  }
  data_param {
    source: "examples/mnist/mnist_train_lmdb"
    batch_size: 64
    backend: LMDB
  }
}
layer {
  name: "conv1"
  type: "Convolution"
  bottom: "data"
  top: "conv1"
  param {
    lr_mult: 1
  }
  param {
    lr_mult: 2
  }
  convolution_param {
    num_output: 20
    kernel_size: 5
    stride: 1
    weight_filler {
      type: "xavier"
    }
    bias_filler {
      type: "constant"
    }
  }
}
layer {
  name: "pool1"
  type: "Pooling"
  bottom: "conv1"
  top: "pool1"
  pooling_param {
    pool: MAX
    kernel_size: 2
    stride: 2
  }
}
layer {
  name: "conv2"
  type: "Convolution"
  bottom: "pool1"
  top: "conv2"
  param {
    lr_mult: 1
  }
  param {
    lr_mult: 2
  }
  convolution_param {
    num_output: 50
    kernel_size: 5
    stride: 1
    weight_filler {
      type: "xavier"
    }
    bias_filler {
      type: "constant"
    }
  }
}
layer {
  name: "pool2"
  type: "Pooling"
  bottom: "conv2"
  top: "pool2"
  pooling_param {
    pool: MAX
    kernel_size: 2
    stride: 2
  }
}
layer {
  name: "ip1"
  type: "InnerProduct"
  bottom: "pool2"
  top: "ip1"
  param {
    lr_mult: 1
  }
  param {
    lr_mult: 2
  }
  inner_product_param {
    num_output: 500
    weight_filler {
      type: "xavier"
    }
    bias_filler {
      type: "constant"
    }
  }
}
layer {
  name: "relu1"
  type: "ReLU"
  bottom: "ip1"
  top: "ip1"
}
layer {
  name: "ip2"
  type: "InnerProduct"
  bottom: "ip1"
  top: "ip2"
  param {
    lr_mult: 1
  }
  param {
    lr_mult: 2
  }
  inner_product_param {
    num_output: 10
    weight_filler {
      type: "xavier"
    }
    bias_filler {
      type: "constant"
    }
  }
}
layer {
  name: "loss"
  type: "SoftmaxWithLoss"
  bottom: "ip2"
  bottom: "label"
  top: "loss"
}
I0921 20:32:50.134289  8616 layer_factory.hpp:77] Creating layer mnist
I0921 20:32:50.134804  8616 net.cpp:91] Creating Layer mnist
I0921 20:32:50.134822  8616 net.cpp:399] mnist -> data
I0921 20:32:50.134933  8616 net.cpp:399] mnist -> label
I0921 20:32:50.135392  8621 db_lmdb.cpp:35] Opened lmdb examples/mnist/mnist_train_lmdb
I0921 20:32:50.150014  8616 data_layer.cpp:41] output data size: 64,1,28,28
I0921 20:32:50.150590  8616 base_data_layer.cpp:69] Initializing prefetch
I0921 20:32:50.150658  8616 base_data_layer.cpp:72] Prefetch initialized.
I0921 20:32:50.150676  8616 net.cpp:141] Setting up mnist
I0921 20:32:50.150727  8616 net.cpp:148] Top shape: 64 1 28 28 (50176)
I0921 20:32:50.150733  8616 net.cpp:148] Top shape: 64 (64)
I0921 20:32:50.150746  8616 net.cpp:156] Memory required for data: 200960
I0921 20:32:50.150777  8616 layer_factory.hpp:77] Creating layer conv1
I0921 20:32:50.150884  8616 net.cpp:91] Creating Layer conv1
I0921 20:32:50.150908  8616 net.cpp:425] conv1 <- data
I0921 20:32:50.150961  8616 net.cpp:399] conv1 -> conv1
I0921 20:32:50.152340  8622 data_layer.cpp:102] Prefetch batch: 0 ms.
I0921 20:32:50.152356  8622 data_layer.cpp:103]      Read time: 0.124 ms.
I0921 20:32:50.152361  8622 data_layer.cpp:104] Transform time: 0.5 ms.
I0921 20:32:50.156302  8622 data_layer.cpp:102] Prefetch batch: 2 ms.
I0921 20:32:50.156347  8622 data_layer.cpp:103]      Read time: 0.117 ms.
I0921 20:32:50.156352  8622 data_layer.cpp:104] Transform time: 0.479 ms.
I0921 20:32:50.165524  8622 data_layer.cpp:102] Prefetch batch: 0 ms.
I0921 20:32:50.165556  8622 data_layer.cpp:103]      Read time: 0.116 ms.
I0921 20:32:50.165561  8622 data_layer.cpp:104] Transform time: 0.47 ms.
I0921 20:32:50.268718  8616 cudnn_conv_layer.cpp:194] Reallocating workspace storage: 10392
I0921 20:32:50.268860  8616 net.cpp:141] Setting up conv1
I0921 20:32:50.268893  8616 net.cpp:148] Top shape: 64 20 24 24 (737280)
I0921 20:32:50.268904  8616 net.cpp:156] Memory required for data: 3150080
I0921 20:32:50.268978  8616 layer_factory.hpp:77] Creating layer pool1
I0921 20:32:50.269023  8616 net.cpp:91] Creating Layer pool1
I0921 20:32:50.269042  8616 net.cpp:425] pool1 <- conv1
I0921 20:32:50.269078  8616 net.cpp:399] pool1 -> pool1
I0921 20:32:50.269165  8616 net.cpp:141] Setting up pool1
I0921 20:32:50.269183  8616 net.cpp:148] Top shape: 64 20 12 12 (184320)
I0921 20:32:50.269186  8616 net.cpp:156] Memory required for data: 3887360
I0921 20:32:50.269201  8616 layer_factory.hpp:77] Creating layer conv2
I0921 20:32:50.269232  8616 net.cpp:91] Creating Layer conv2
I0921 20:32:50.269239  8616 net.cpp:425] conv2 <- pool1
I0921 20:32:50.269251  8616 net.cpp:399] conv2 -> conv2
I0921 20:32:50.270848  8616 cudnn_conv_layer.cpp:194] Reallocating workspace storage: 10272
I0921 20:32:50.270875  8616 net.cpp:141] Setting up conv2
I0921 20:32:50.270892  8616 net.cpp:148] Top shape: 64 50 8 8 (204800)
I0921 20:32:50.270895  8616 net.cpp:156] Memory required for data: 4706560
I0921 20:32:50.270910  8616 layer_factory.hpp:77] Creating layer pool2
I0921 20:32:50.270936  8616 net.cpp:91] Creating Layer pool2
I0921 20:32:50.270941  8616 net.cpp:425] pool2 <- conv2
I0921 20:32:50.270952  8616 net.cpp:399] pool2 -> pool2
I0921 20:32:50.271018  8616 net.cpp:141] Setting up pool2
I0921 20:32:50.271036  8616 net.cpp:148] Top shape: 64 50 4 4 (51200)
I0921 20:32:50.271039  8616 net.cpp:156] Memory required for data: 4911360
I0921 20:32:50.271044  8616 layer_factory.hpp:77] Creating layer ip1
I0921 20:32:50.271069  8616 net.cpp:91] Creating Layer ip1
I0921 20:32:50.271075  8616 net.cpp:425] ip1 <- pool2
I0921 20:32:50.271087  8616 net.cpp:399] ip1 -> ip1
I0921 20:32:50.287164  8616 net.cpp:141] Setting up ip1
I0921 20:32:50.287184  8616 net.cpp:148] Top shape: 64 500 (32000)
I0921 20:32:50.287187  8616 net.cpp:156] Memory required for data: 5039360
I0921 20:32:50.287220  8616 layer_factory.hpp:77] Creating layer relu1
I0921 20:32:50.287252  8616 net.cpp:91] Creating Layer relu1
I0921 20:32:50.287268  8616 net.cpp:425] relu1 <- ip1
I0921 20:32:50.287288  8616 net.cpp:386] relu1 -> ip1 (in-place)
I0921 20:32:50.287444  8616 net.cpp:141] Setting up relu1
I0921 20:32:50.287452  8616 net.cpp:148] Top shape: 64 500 (32000)
I0921 20:32:50.287456  8616 net.cpp:156] Memory required for data: 5167360
I0921 20:32:50.287459  8616 layer_factory.hpp:77] Creating layer ip2
I0921 20:32:50.287482  8616 net.cpp:91] Creating Layer ip2
I0921 20:32:50.287487  8616 net.cpp:425] ip2 <- ip1
I0921 20:32:50.287498  8616 net.cpp:399] ip2 -> ip2
I0921 20:32:50.288041  8616 net.cpp:141] Setting up ip2
I0921 20:32:50.288051  8616 net.cpp:148] Top shape: 64 10 (640)
I0921 20:32:50.288054  8616 net.cpp:156] Memory required for data: 5169920
I0921 20:32:50.288064  8616 layer_factory.hpp:77] Creating layer loss
I0921 20:32:50.288092  8616 net.cpp:91] Creating Layer loss
I0921 20:32:50.288099  8616 net.cpp:425] loss <- ip2
I0921 20:32:50.288107  8616 net.cpp:425] loss <- label
I0921 20:32:50.288120  8616 net.cpp:399] loss -> loss
I0921 20:32:50.288161  8616 layer_factory.hpp:77] Creating layer loss
…
I0921 20:32:50.288897  8616 solver.cpp:181] Creating test net (#0) specified by net file: examples/mnist/lenet_train_test.prototxt
I0921 20:32:50.288960  8616 net.cpp:313] The NetState phase (1) differed from the phase (0) specified by a rule in layer mnist
I0921 20:32:50.289050  8616 net.cpp:49] Initializing net from parameters: 
name: "LeNet"
state {
  phase: TEST
}
layer {
  name: "mnist"
  type: "Data"
  top: "data"
  top: "label"
  include {
    phase: TEST
  }
  transform_param {
    scale: 0.00390625
  }
  data_param {
    source: "examples/mnist/mnist_test_lmdb"
    batch_size: 100
    backend: LMDB
  }
}
layer {
  name: "conv1"
  type: "Convolution"
  bottom: "data"
  top: "conv1"
  param {
    lr_mult: 1
  }
  param {
    lr_mult: 2
  }
  convolution_param {
    num_output: 20
    kernel_size: 5
    stride: 1
    weight_filler {
      type: "xavier"
    }
    bias_filler {
      type: "constant"
    }
  }
}
layer {
  name: "pool1"
  type: "Pooling"
  bottom: "conv1"
  top: "pool1"
  pooling_param {
    pool: MAX
    kernel_size: 2
    stride: 2
  }
}
layer {
  name: "conv2"
  type: "Convolution"
  bottom: "pool1"
  top: "conv2"
  param {
    lr_mult: 1
  }
  param {
    lr_mult: 2
  }
  convolution_param {
    num_output: 50
    kernel_size: 5
    stride: 1
    weight_filler {
      type: "xavier"
    }
    bias_filler {
      type: "constant"
    }
  }
}
layer {
  name: "pool2"
  type: "Pooling"
  bottom: "conv2"
  top: "pool2"
  pooling_param {
    pool: MAX
    kernel_size: 2
    stride: 2
  }
}
layer {
  name: "ip1"
  type: "InnerProduct"
  bottom: "pool2"
  top: "ip1"
  param {
    lr_mult: 1
  }
  param {
    lr_mult: 2
  }
  inner_product_param {
    num_output: 500
    weight_filler {
      type: "xavier"
    }
    bias_filler {
      type: "constant"
    }
  }
}
layer {
  name: "relu1"
  type: "ReLU"
  bottom: "ip1"
  top: "ip1"
}
layer {
  name: "ip2"
  type: "InnerProduct"
  bottom: "ip1"
  top: "ip2"
  param {
    lr_mult: 1
  }
  param {
    lr_mult: 2
  }
  inner_product_param {
    num_output: 10
    weight_filler {
      type: "xavier"
    }
    bias_filler {
      type: "constant"
    }
  }
}
layer {
  name: "accuracy"
  type: "Accuracy"
  bottom: "ip2"
  bottom: "label"
  top: "accuracy"
  include {
    phase: TEST
  }
}
layer {
  name: "loss"
  type: "SoftmaxWithLoss"
  bottom: "ip2"
  bottom: "label"
  top: "loss"
}
I0921 20:32:50.289196  8616 layer_factory.hpp:77] Creating layer mnist
I0921 20:32:50.289343  8616 net.cpp:91] Creating Layer mnist
I0921 20:32:50.289357  8616 net.cpp:399] mnist -> data
I0921 20:32:50.289376  8616 net.cpp:399] mnist -> label
I0921 20:32:50.289876  8623 db_lmdb.cpp:35] Opened lmdb examples/mnist/mnist_test_lmdb
I0921 20:32:50.289960  8616 data_layer.cpp:41] output data size: 100,1,28,28
I0921 20:32:50.290706  8616 base_data_layer.cpp:69] Initializing prefetch
I0921 20:32:50.290733  8616 base_data_layer.cpp:72] Prefetch initialized.
I0921 20:32:50.290740  8616 net.cpp:141] Setting up mnist
I0921 20:32:50.290745  8616 net.cpp:148] Top shape: 100 1 28 28 (78400)
I0921 20:32:50.290750  8616 net.cpp:148] Top shape: 100 (100)
I0921 20:32:50.290752  8616 net.cpp:156] Memory required for data: 314000
I0921 20:32:50.290758  8616 layer_factory.hpp:77] Creating layer label_mnist_1_split
I0921 20:32:50.290781  8616 net.cpp:91] Creating Layer label_mnist_1_split
I0921 20:32:50.290787  8616 net.cpp:425] label_mnist_1_split <- label
I0921 20:32:50.290801  8616 net.cpp:399] label_mnist_1_split -> label_mnist_1_split_0
I0921 20:32:50.290815  8616 net.cpp:399] label_mnist_1_split -> label_mnist_1_split_1
I0921 20:32:50.290854  8616 net.cpp:141] Setting up label_mnist_1_split
I0921 20:32:50.290863  8616 net.cpp:148] Top shape: 100 (100)
I0921 20:32:50.290868  8616 net.cpp:148] Top shape: 100 (100)
I0921 20:32:50.290870  8616 net.cpp:156] Memory required for data: 314800
I0921 20:32:50.290874  8616 layer_factory.hpp:77] Creating layer conv1
I0921 20:32:50.290891  8616 net.cpp:91] Creating Layer conv1
I0921 20:32:50.290899  8616 net.cpp:425] conv1 <- data
I0921 20:32:50.290912  8616 net.cpp:399] conv1 -> conv1
I0921 20:32:50.291831  8616 cudnn_conv_layer.cpp:194] Reallocating workspace storage: 20664
I0921 20:32:50.291872  8616 net.cpp:141] Setting up conv1
I0921 20:32:50.291879  8616 net.cpp:148] Top shape: 100 20 24 24 (1152000)
I0921 20:32:50.291883  8616 net.cpp:156] Memory required for data: 4922800
I0921 20:32:50.291903  8616 layer_factory.hpp:77] Creating layer pool1
I0921 20:32:50.291918  8616 net.cpp:91] Creating Layer pool1
I0921 20:32:50.291924  8616 net.cpp:425] pool1 <- conv1
I0921 20:32:50.291936  8616 net.cpp:399] pool1 -> pool1
I0921 20:32:50.291978  8616 net.cpp:141] Setting up pool1
I0921 20:32:50.291986  8616 net.cpp:148] Top shape: 100 20 12 12 (288000)
I0921 20:32:50.291990  8616 net.cpp:156] Memory required for data: 6074800
I0921 20:32:50.291995  8616 layer_factory.hpp:77] Creating layer conv2
I0921 20:32:50.292013  8616 net.cpp:91] Creating Layer conv2
I0921 20:32:50.292019  8616 net.cpp:425] conv2 <- pool1
I0921 20:32:50.292033  8616 net.cpp:399] conv2 -> conv2
I0921 20:32:50.292703  8624 data_layer.cpp:102] Prefetch batch: 1 ms.
I0921 20:32:50.292713  8624 data_layer.cpp:103]      Read time: 0.112 ms.
I0921 20:32:50.292717  8624 data_layer.cpp:104] Transform time: 0.616 ms.
I0921 20:32:50.293740  8616 cudnn_conv_layer.cpp:194] Reallocating workspace storage: 10272
I0921 20:32:50.293761  8616 net.cpp:141] Setting up conv2
I0921 20:32:50.293769  8616 net.cpp:148] Top shape: 100 50 8 8 (320000)
I0921 20:32:50.293773  8616 net.cpp:156] Memory required for data: 7354800
I0921 20:32:50.293789  8616 layer_factory.hpp:77] Creating layer pool2
I0921 20:32:50.293802  8616 net.cpp:91] Creating Layer pool2
I0921 20:32:50.293803  8624 data_layer.cpp:102] Prefetch batch: 1 ms.
I0921 20:32:50.293807  8616 net.cpp:425] pool2 <- conv2
I0921 20:32:50.293809  8624 data_layer.cpp:103]      Read time: 0.099 ms.
I0921 20:32:50.293812  8624 data_layer.cpp:104] Transform time: 0.61 ms.
I0921 20:32:50.293818  8616 net.cpp:399] pool2 -> pool2
I0921 20:32:50.293859  8616 net.cpp:141] Setting up pool2
I0921 20:32:50.293866  8616 net.cpp:148] Top shape: 100 50 4 4 (80000)
I0921 20:32:50.293869  8616 net.cpp:156] Memory required for data: 7674800
I0921 20:32:50.293874  8616 layer_factory.hpp:77] Creating layer ip1
I0921 20:32:50.293887  8616 net.cpp:91] Creating Layer ip1
I0921 20:32:50.293893  8616 net.cpp:425] ip1 <- pool2
I0921 20:32:50.293907  8616 net.cpp:399] ip1 -> ip1
I0921 20:32:50.294877  8624 data_layer.cpp:102] Prefetch batch: 0 ms.
I0921 20:32:50.294883  8624 data_layer.cpp:103]      Read time: 0.108 ms.
I0921 20:32:50.294886  8624 data_layer.cpp:104] Transform time: 0.568 ms.
I0921 20:32:50.310060  8616 net.cpp:141] Setting up ip1
I0921 20:32:50.310080  8616 net.cpp:148] Top shape: 100 500 (50000)
I0921 20:32:50.310083  8616 net.cpp:156] Memory required for data: 7874800
I0921 20:32:50.310118  8616 layer_factory.hpp:77] Creating layer relu1
I0921 20:32:50.310150  8616 net.cpp:91] Creating Layer relu1
I0921 20:32:50.310170  8616 net.cpp:425] relu1 <- ip1
I0921 20:32:50.310191  8616 net.cpp:386] relu1 -> ip1 (in-place)
I0921 20:32:50.310452  8616 net.cpp:141] Setting up relu1
I0921 20:32:50.310461  8616 net.cpp:148] Top shape: 100 500 (50000)
I0921 20:32:50.310464  8616 net.cpp:156] Memory required for data: 8074800
I0921 20:32:50.310478  8616 layer_factory.hpp:77] Creating layer ip2
I0921 20:32:50.310509  8616 net.cpp:91] Creating Layer ip2
I0921 20:32:50.310516  8616 net.cpp:425] ip2 <- ip1
I0921 20:32:50.310539  8616 net.cpp:399] ip2 -> ip2
I0921 20:32:50.310874  8616 net.cpp:141] Setting up ip2
I0921 20:32:50.310884  8616 net.cpp:148] Top shape: 100 10 (1000)
I0921 20:32:50.310886  8616 net.cpp:156] Memory required for data: 8078800
I0921 20:32:50.310895  8616 layer_factory.hpp:77] Creating layer ip2_ip2_0_split
I0921 20:32:50.310914  8616 net.cpp:91] Creating Layer ip2_ip2_0_split
I0921 20:32:50.310919  8616 net.cpp:425] ip2_ip2_0_split <- ip2
I0921 20:32:50.310928  8616 net.cpp:399] ip2_ip2_0_split -> ip2_ip2_0_split_0
I0921 20:32:50.310940  8616 net.cpp:399] ip2_ip2_0_split -> ip2_ip2_0_split_1
I0921 20:32:50.311002  8616 net.cpp:141] Setting up ip2_ip2_0_split
I0921 20:32:50.311022  8616 net.cpp:148] Top shape: 100 10 (1000)
I0921 20:32:50.311027  8616 net.cpp:148] Top shape: 100 10 (1000)
I0921 20:32:50.311028  8616 net.cpp:156] Memory required for data: 8086800
I0921 20:32:50.311040  8616 layer_factory.hpp:77] Creating layer accuracy
I0921 20:32:50.311064  8616 net.cpp:91] Creating Layer accuracy
I0921 20:32:50.311069  8616 net.cpp:425] accuracy <- ip2_ip2_0_split_0
I0921 20:32:50.311079  8616 net.cpp:425] accuracy <- label_mnist_1_split_0
I0921 20:32:50.311086  8616 net.cpp:399] accuracy -> accuracy
…
